checkpoint/FASRNet/Bestssim.pth (torch, 189580 bytes, 8 tensors)

patch_embed.embed.weight f4 [32, 3, 3, 3]
0	0x3e1c7066	0.15277252
1	0x3e16abfa	0.14714041
2	0x3ddb6cf3	0.1071414
3	0xbe250f69	-0.1611916
4	0xbb7e597e	-0.0038810666
5	0xbd66b83b	-0.05632804
6	0xbd656fef	-0.05601495
7	0xbd4c87b4	-0.049934104
8	0x3e434ec8	0.19073021
9	0x3e4dcbf8	0.20097339
10	0xbdc53af7	-0.09630387
11	0x3d85873e	0.06519936
12	0x3e1d0d63	0.15337138
13	0x3da30bc2	0.07961227
14	0x3d4d4bd4	0.050121143
15	0xbe002ae9	-0.12516369
16	0xbe2d2694	-0.16909248
17	0xbc3ac673	-0.011399853
18	0xbe0ac187	-0.13550387
19	0xbe1ef0d4	-0.15521556
20	0xbd36b899	-0.04460964
21	0xbd410b10	-0.04712969
22	0x3d4df224	0.05027975
23	0x3d915155	0.07095591
24	0x3e56f3bc	0.20991415
25	0xbce7f71a	-0.02831607
26	0x3da0e283	0.07855704
27	0xbde7ccd4	-0.11318365
28	0x3d561dcf	0.05227452
29	0xbe114af9	-0.14188756
30	0x3e08221f	0.13294266
31	0xbe06db11	-0.13169505
32	0xbe0fc7f6	-0.14041123
33	0x3de3fbc3	0.11132004
34	0xbd666995	-0.056253035
35	0x3e0a6003	0.13513188
36	0x3dec9bda	0.11553164
37	0x3e78be2b	0.24291293
38	0x3e12b215	0.14325745
39	0xbd112ac6	-0.035441183
40	0x3e00b08c	0.12567347
41	0xbd02b1d6	-0.03190788
42	0xbd3d8dca	-0.0462778
43	0xbd4d9da7	-0.050199177
44	0xbdb7c49f	-0.08973049
45	0x3df11233	0.11771049
46	0x3e5715e5	0.21004446
47	0xbda752cc	-0.08170089
48	0x3dd12d7e	0.10213755
49	0xbca1be5f	-0.019744096
50	0xbd61b101	-0.055100445
51	0xbddb4bd2	-0.10707821
52	0xbbd1b039	-0.006399181
53	0x3dccb96b	0.09996303
54	0x3d139a13	0.03603561
55	0x3da2c3e8	0.079475224
56	0xbddfecb7	-0.10933822
57	0x3d9ce0f9	0.07660098
58	0xbdc3de65	-0.09563903
59	0x3bafdc8f	0.005366869
60	0x3c7c4e69	0.015399554
61	0x3e25a872	0.16177538
62	0xbc94f639	-0.018183814
63	0x3e31210f	0.17297767
64	0xbe0ee605	-0.13954933
65	0x3e33583c	0.17514127
66	0xbe1015d1	-0.14070822
67	0xbe0d8a5a	-0.13822308
68	0xbba93303	-0.005163552
69	0x3db371a6	0.08761911
70	0x3d41cf31	0.047316734
71	0xbe36c988	-0.17850316
72	0xbdb75b43	-0.08952954
73	0xbd9347e5	-0.07191447
74	0x3ab48f19	0.0013775557
75	0xbe141275	-0.14460166
76	0x3e8778eb	0.2645944
77	0x3e8d6e41	0.2762318
78	0x3dfe2b2c	0.12410578
79	0x3dbe31da	0.09286852
80	0xbd3440ce	-0.044007115
81	0x3b2c68b2	0.002630752
82	0x3ca090f1	0.019600363
83	0xbe13a458	-0.14418161
84	0xbdbf4a64	-0.09340361
85	0xbda84d8a	-0.082179144
86	0x3df9e7d0	0.12202418
87	0xbdea7c9b	-0.11449548
88	0x3e0d0b3a	0.13773814
89	0x3e063a0f	0.13108085
90	0xbcaee80b	-0.021350881
91	0xbb893f9e	-0.004188492
92	0xbe195454	-0.14973575
93	0x3bb61174	0.00555628
94	0x3dcd11e5	0.10013179
95	0x3e3aa7b0	0.1822803
96	0xbd6106cf	-0.054938134
97	0x3dc7cb21	0.09755541
98	0x3e623593	0.2209075
99	0x3dc16f0b	0.09445008
100	0xbdaa0758	-0.08302182
101	0x3e3ccec0	0.18438244
102	0xbde03b0e	-0.10948764
103	0x3d586938	0.05283472
104	0x3c9f51af	0.01944813
105	0x3d9047e1	0.0704496
106	0x3c30604c	0.010765146
107	0x3e63ba67	0.22239076
108	0x3dfb2f77	0.122649126
109	0x3e0d5fef	0.13806127
110	0xbe205015	-0.15655549
111	0x3d5f29b8	0.054483145
112	0x3def48fb	0.11683842
113	0x3c20f9a5	0.009825145
114	0x3e1cfe9a	0.15331498
115	0x3e405e04	0.18785864
116	0xbd5ec87a	-0.054390408
117	0x3d55acfd	0.052166928
118	0x3d889921	0.06669832
119	0x3e007a13	0.12546568
120	0xbd48ff8f	-0.049071845
121	0xbe3423bb	-0.17591755
122	0xbd8955cd	-0.06705818
123	0xbca53b0e	-0.020169761
124	0xbdd0221d	-0.101627566
125	0x3e3085f0	0.17238593
126	0x3b81a96c	0.0039569642
127	0x3dbe8939	0.09303517
128	0x3d8ba511	0.06818593
129	0x3ce7b08b	0.028282424
130	0x3d864e94	0.06557956
131	0xbdd013f9	-0.101600595
132	0x3cae323d	0.02126419
133	0x3d2904e0	0.041264415
134	0x3e45b8c7	0.19308768
135	0x3e28d984	0.16489226
136	0x3d06aa1e	0.03287708
137	0x3cd3b9ed	0.025845492
138	0xbe10c161	-0.14136268
139	0xbbf83858	-0.007575076
140	0xbd5d944a	-0.054096498
141	0xbcc8eeca	-0.024527926
142	0xbd8b0680	-0.06788349
143	0x3dc5dbf8	0.09661096
144	0x3e27e15a	0.16394559
145	0xbe06dd90	-0.13170457
146	0xbda4e7de	-0.08052038
147	0x3c9c6e2e	0.019095507
148	0xbe3baea8	-0.18328345
149	0x3e079848	0.13241684
150	0x3d0c45a7	0.034246113
151	0x3d82bbc1	0.063834675
152	0x3ce3576b	0.027751645
153	0xbd81a3a6	-0.063300416
154	0xbe425452	-0.18977478
155	0xbddc9f12	-0.10772528
156	0xbca6bd71	-0.020354005
157	0x3d6b7bde	0.057491176
158	0x3e02effb	0.12786858
159	0x3d43e7a6	0.04782834
160	0xbe001962	-0.12509683
161	0xbe2abe76	-0.16674218
162	0x3d0e2626	0.03470435
163	0x3d8a8ed9	0.06765527
164	0x3d5eedc6	0.054425977
165	0xbdaacbfd	-0.08339689
166	0xbe25e46f	-0.16200422
167	0x3e32a9c1	0.17447568
168	0x3d95ac13	0.07308211
169	0x3dd76846	0.105179355
170	0x3dfa4933	0.12220993
171	0xbc2a2c07	-0.0103864735
172	0x3da80173	0.082034014
173	0x3e4604e9	0.1933781
174	0x3e0fac35	0.14030536
175	0x3d09ab42	0.03361059
176	0x3e124cea	0.14287153
177	0xbdd67479	-0.10471434
178	0xbdaef6db	-0.08543178
179	0x3d2462bc	0.040133223
180	0xbdd9ea1c	-0.10640356
181	0x3d92512b	0.07144388
182	0x3e21dddb	0.15807287
183	0xbe05fee5	-0.13085516
184	0xbe4c94c9	-0.19978632
185	0xbd33209b	-0.043732267
186	0x3e24480e	0.16043112
187	0xbd11fca7	-0.03564134
188	0x3d5e5222	0.054277547
189	0x3e0f6aa2	0.14005521
190	0xbe2866f2	-0.1644552
191	0xbd7a89fc	-0.06116675
192	0xbce8ac4f	-0.028402476
193	0xbe09c3b9	-0.13453569
194	0xbd4f1c5c	-0.050564155
195	0x3e6522b9	0.22376527
196	0xbe2d44bd	-0.16920753
197	0x3e01c30e	0.12672064
198	0x3e346ed9	0.1762041
199	0xbe3bb6c2	-0.18331435
200	0xbc149ed7	-0.0090710735
201	0xbdf9e64c	-0.12202129
202	0x3e51c1ac	0.20484036
203	0x3e34f499	0.17671432
204	0x3cc173a8	0.02361472
205	0x3db41d5c	0.08794662
206	0x3c394b3b	0.01130944
207	0x3e28cdc9	0.16484751
208	0x3dc87bb8	0.097892225
209	0x3d41dbd2	0.047328778
210	0x3db31339	0.08743901
211	0xbc4a137b	-0.012333746
212	0x3e0a475f	0.13503788
213	0x3dc275fc	0.0949516
214	0xbd5a8e5a	-0.053358413
215	0xbe04d0ad	-0.12970228
216	0x3d649e71	0.055815164
217	0xbe020eb5	-0.12700923
218	0xbe1b9351	-0.15192915
219	0x3bcde3df	0.006283268
220	0x3c7f8e09	0.015597829
221	0x3d031e29	0.032011185
222	0xbe3315b7	-0.17488752
223	0xbda89776	-0.08232014
224	0x3d113c8c	0.035458133
225	0x3b939155	0.004503409
226	0x3e0393d5	0.12849362
227	0x3e4d03d2	0.20020989
228	0x3e58ce90	0.21172547
229	0x3dc8cf7b	0.09805199
230	0xbc121db2	-0.008918213
231	0xbd9187ad	-0.07105956
232	0x3dd8deaf	0.105893485
233	0x3df81070	0.1211251
234	0xbda17f31	-0.07885588
235	0xbe38835e	-0.18018863
236	0x3dfb973c	0.12284705
237	0x3e59293c	0.21207136
238	0x3b8f9040	0.0043812096
239	0xbde8939e	-0.11356281
240	0xbd189aa2	-0.037256844
241	0x3dffd64d	0.124920465
242	0x3dd7aa08	0.10530478
243	0xbe325d7c	-0.17418474
244	0x3d80588f	0.06266891
245	0xbdef06f3	-0.11671247
246	0xbd557565	-0.05211391
247	0x3e5983af	0.2124164
248	0x3d79c150	0.060975373
249	0x3de346b7	0.11097472
250	0xbc0ebde9	-0.00871227
251	0x3e294a2c	0.165322
252	0x3e43e450	0.19130063
253	0x3e080350	0.13282514
254	0x3ddc169c	0.107465
255	0xbe0105e9	-0.12599911

CACNN.flow.0.SE_module.2.weight f4 [8, 32]
0	0xbd8be591	-0.06830896
1	0x3caa0950	0.020756394
2	0xbda2512a	-0.07925637
3	0x3d974832	0.07386817
4	0xbc520d70	-0.012820587
5	0xbdfdd972	-0.1239499
6	0x3c03d210	0.008045688
7	0x3d8f5e2a	0.07000382
8	0x3d779930	0.060448825
9	0xbde76e28	-0.113003075
10	0x3e09d65f	0.13460682
11	0x3d877c84	0.06615546
12	0xbdf993ac	-0.12186369
13	0xbe1f0ad9	-0.15531482
14	0x3e143ee5	0.14477117
15	0xbe193ad9	-0.14963855
16	0xbd00ab88	-0.031413585
17	0x3de0bdc6	0.109736964
18	0xbe03c03c	-0.128663
19	0xbe2dc997	-0.16971432
20	0xbcdb1610	-0.026743919
21	0x3d3200ec	0.04345791
22	0xbdcc6630	-0.09980428
23	0x3e14e335	0.14539798
24	0x3d6c4d68	0.057691008
25	0xbde2c8e7	-0.11073475
26	0xbd5bd114	-0.05366619
27	0xba60d900	-0.00085772574
28	0xbe19f070	-0.15033126
29	0xbe211cd8	-0.1573366
30	0xbd898a9d	-0.067158915
31	0x3e304dc1	0.17217161
32	0xbe045aab	-0.12925212
33	0x3d30035c	0.042971954
34	0x3e26009b	0.16211168
35	0x3e1a8917	0.15091358
36	0xbcab8d60	-0.020941436
37	0x3db3048a	0.087411
38	0xbd5ffd74	-0.05468507
39	0xbdbb1b29	-0.0913604
40	0x3e2abf3f	0.16674517
41	0x3de290d6	0.110627815
42	0x3d34a524	0.044102803
43	0x3d4342fc	0.047671303
44	0xbdc18cfb	-0.09450718
45	0x3c39e390	0.011345759
46	0x3e07f091	0.13275363
47	0xbd3ce800	-0.04611969
48	0x3dc222b6	0.09479277
49	0x3e206eff	0.15667342
50	0xbc174a60	-0.009234041
51	0x3d9fadea	0.07796843
52	0x3cabb748	0.020961419
53	0xbd161014	-0.036636427
54	0xbd7d3e3e	-0.061826937
55	0x3e02f499	0.12788619
56	0x3e26318b	0.16229837
57	0x3df16b1e	0.11788009
58	0xbe3048ba	-0.17215243
59	0x3e0fa865	0.14029081
60	0xbe02cfcb	-0.12774579
61	0xbac61480	-0.0015112311
62	0x3df5ae1a	0.11996098
63	0xbd923088	-0.07138163
64	0xbd419474	-0.047260717
65	0x3decb73a	0.11558385
66	0x3dc0308a	0.09384258
67	0xbe2c7889	-0.16842856
68	0x3e10e8a1	0.14151241
69	0xbd51cc40	-0.05122018
70	0xbe12453e	-0.14284226
71	0xbddc8bcd	-0.107688524
72	0x3d8a3340	0.067480564
73	0x3be08f60	0.006853029
74	0x3d2d772c	0.04234998
75	0xbd7b654c	-0.0613759
76	0x3dd47e1e	0.103756174
77	0xbe1c410f	-0.15259193
78	0xba855c80	-0.0010174662
79	0x3cd7d418	0.026346251
80	0xbbe8a540	-0.0070997775
81	0x3cb70e40	0.022345662
82	0x3d931c6e	0.07183157
83	0x3d6e9b54	0.0582536
84	0x3b0d3f40	0.0021552593
85	0xbe08d639	-0.1336297
86	0x3d540464	0.051762
87	0xbe13bf7d	-0.14428516
88	0x3dbe35b6	0.09287588
89	0x3d22efc8	0.039779454
90	0xbe2839d0	-0.16428304
91	0xba91f800	-0.0011136532
92	0x3d268f10	0.04066378
93	0xbdb87626	-0.0900691
94	0x3ddc4c0e	0.10756694
95	0xbe23452d	-0.15944357
96	0x3d72f0c8	0.05931166
97	0x3d20eb2c	0.039286777
98	0xbe0bb89a	-0.13644639
99	0xbe03c1fe	-0.12866971
100	0xbdcd2da0	-0.10018468
101	0x3e0e9fe1	0.13928176
102	0xbda52987	-0.08064561
103	0x3d0e2b3c	0.0347092
104	0x3e234b39	0.15946664
105	0xbdfcb680	-0.123394966
106	0x3e2c108f	0.16803192
107	0x3e06d7ad	0.13168211
108	0xbd865d93	-0.065608166
109	0xbd403fe4	-0.04693593
110	0x3e0e82c3	0.13917069
111	0xbd132cfc	-0.035931572
112	0xbe126f62	-0.14300302
113	0x3d1e56d8	0.03865704
114	0x3e2a701d	0.1664433
115	0x3e06e5af	0.13173555
116	0x3dead3d6	0.11466186
117	0x3e13b401	0.14424135
118	0xbe2acb38	-0.16679084
119	0x39c9ce00	0.0003849119
120	0xbdbdd041	-0.09268237
121	0x3e3246f3	0.17409877
122	0xbe23fc02	-0.16014102
123	0x3d6b583c	0.057457194
124	0x3db1105e	0.086457
125	0xbaf6f380	-0.0018840879
126	0x3dcfdb0e	0.10149203
127	0xbc54a460	-0.012978643
128	0xbe2692a9	-0.16266884
129	0xbd944186	-0.0723906
130	0xbc004680	-0.0078293085
131	0xbc50c800	-0.012742996
132	0xbca71750	-0.020396858
133	0x3daf0612	0.0854608
134	0x3da03d4a	0.0782419
135	0x3dc9234a	0.09821184
136	0xbde25402	-0.110511795
137	0xbc2afb10	-0.0104358345
138	0xbca0c590	-0.019625455
139	0x3c59f730	0.013303563
140	0xbe27c95f	-0.1638541
141	0xbbbdb640	-0.005789548
142	0x3d6b0538	0.057378024
143	0xbcb50770	-0.022098273
144	0x3e32fdf7	0.17479692
145	0x3a96f580	0.0011517256
146	0x3dbc6ac6	0.09200053
147	0x3dd3b4c2	0.10337211
148	0xbb8fd9c0	-0.0043899715
149	0xbd16d434	-0.036823466
150	0x3df5b4d2	0.11997379
151	0x3de69ca6	0.11260347
152	0x3c4d99f0	0.012548909
153	0xbe211ba0	-0.15733194
154	0xbc2ad7f0	-0.01042746
155	0x3e111f03	0.14171986
156	0xbe29a5bc	-0.16567129
157	0xbdfbf89c	-0.12303278
158	0xbe2b5604	-0.16732031
159	0x3e2b36fd	0.16720195
160	0xbd4f261c	-0.050573453
161	0xbe2f428b	-0.17115228
162	0x3d5cf77c	0.053946957
163	0x3ded77aa	0.1159509
164	0xbc957f98	-0.018249318
165	0xbe0cd0c0	-0.13751507
166	0xbe13f0e9	-0.14447369
167	0x3e03213b	0.12805645
168	0x3dd7f02e	0.105438575
169	0x3de67132	0.11252059
170	0xbd999deb	-0.075008236
171	0xbc515160	-0.012775749
172	0xbe032b4d	-0.12809487
173	0x3d3c64ec	0.045994684
174	0x3d70bc7c	0.058773503
175	0x3d9eea4e	0.07759534
176	0xbe0299cb	-0.1275398
177	0x3d808fee	0.062774524
178	0x3d910da8	0.07082683
179	0x3dd2ea9a	0.10298653
180	0x3d873452	0.06601776
181	0xbe27b92a	-0.16379228
182	0x3e34abcd	0.17643662
183	0x3de918ca	0.11381681
184	0x3e044c2b	0.12919681
185	0xbce9ad68	-0.02852507
186	0xbdf95432	-0.12174262
187	0x3df6f9f6	0.12059395
188	0x3d110d88	0.035413295
189	0x3e30d511	0.17268778
190	0x3dcaf572	0.09910096
191	0x3e1511fd	0.14557643
192	0xbe12dde4	-0.14342457
193	0xbd877ca3	-0.066155694
194	0x3cfc1410	0.030771285
195	0xbdec7bf6	-0.11547081
196	0xbcfe7620	-0.031062186
197	0x3d558914	0.05213268
198	0xbd1d8938	-0.03846094
199	0xbc0c2350	-0.008553341
200	0xbdca77e6	-0.0988615
201	0x3d8fd498	0.07022971
202	0xbcc23850	-0.023708493
203	0x3cb94898	0.022617623
204	0xbd811a26	-0.063038155
205	0xbd872d05	-0.06600384
206	0xbd2dab40	-0.042399645
207	0x3d399bac	0.045314476
208	0x3c9f8ce0	0.019476354
209	0xbcd35070	-0.025795192
210	0x3ae21a80	0.0017250329
211	0x3e1b807b	0.1518573
212	0xbe17f3d0	-0.14839101
213	0xbc3e2c30	-0.011607215
214	0x3d33d9c8	0.043908864
215	0x3bae5ea0	0.005321339
216	0xbd304888	-0.04303792
217	0x3e251569	0.16121449
218	0xbe084e18	-0.1331104
219	0xbd9053c9	-0.07047231
220	0xbc4af700	-0.012387991
221	0x3bff1e00	0.0077855587
222	0xbe2df7e9	-0.16989101
223	0x3e1317e3	0.14364581
224	0xbd2dc11c	-0.04242049
225	0x3cb8ad08	0.022543445
226	0xbdf3762e	-0.11887775
227	0x3d03bed8	0.032164425
228	0x3e007487	0.12544452
229	0xbd5798de	-0.05263602
230	0xbdc0bc00	-0.09410858
231	0x3dcc8132	0.099855796
232	0xbe2dd117	-0.16974293
233	0x3e0c912f	0.13727258
234	0xbe30260b	-0.17202012
235	0xbe12fd68	-0.1435448
236	0x3d8b5872	0.06803979
237	0xbdd1cb8b	-0.10243901
238	0x3d5c54e8	0.05379191
239	0x3e19e4c5	0.15028675
240	0xbde30ba0	-0.11086202
241	0x3d940872	0.07228173
242	0x3e0a6ac5	0.13517292
243	0x3d2aa844	0.041664377
244	0xbe17ee2e	-0.14836952
245	0xbe3368b5	-0.17520411
246	0xbd9e791a	-0.07737942
247	0xbe029dc8	-0.12755501
248	0x3e10a62b	0.14125888
249	0x3e2be17f	0.16785239
250	0x3e21e7c7	0.15811072
251	0xbd323664	-0.043508902
252	0xbd8d0acb	-0.06886824
253	0xbdade94c	-0.084917635
254	0xbe19dd5b	-0.15025847
255	0x3c72c160	0.014816612

CACNN.flow.0.SE_module.4.weight f4 [32, 8]
0	0xbdcdad98	-0.10042876
1	0xbe08ff67	-0.13378678
2	0x3e598652	0.21242645
3	0x3eb3c731	0.35112908
4	0x3e84606b	0.2585481
5	0xbeb4044b	-0.35159525
6	0xbd749aa0	-0.059717774
7	0xbd8f2958	-0.069903076
8	0xbe9393d3	-0.28823718
9	0x3e772d0e	0.24138281
10	0xbd21f600	-0.039541245
11	0x3c96f1d0	0.018425852
12	0xbeb0c80c	-0.34527624
13	0x3dd101b4	0.10205403
14	0x3e8b99d9	0.27265814
15	0x3cb95e30	0.02262792
16	0xbe9d5d97	-0.30735466
17	0xbe8fb0c7	-0.28064558
18	0xbe75de01	-0.24010469
19	0x3b981880	0.0046415925
20	0xbeadfc4a	-0.33981544
21	0x3ea9757b	0.33097443
22	0xbe150576	-0.14552864
23	0xbda884ec	-0.08228478
24	0xbdeafc84	-0.11473945
25	0xbe18b699	-0.14913405
26	0xbd67cd40	-0.056592226
27	0xbe8470dd	-0.25867358
28	0x3e4ea6aa	0.20180765
29	0xbe8b7c65	-0.27243343
30	0x3d7dae38	0.061933726
31	0xbb923040	-0.0044613183
32	0xbd09aa70	-0.033609807
33	0x3ccd6100	0.025070667
34	0xbead31e0	-0.33827114
35	0xbe5a7962	-0.21335366
36	0x3e3d482a	0.1848456
37	0x3e1e7792	0.154753
38	0x3ead8e95	0.33897844
39	0xbc363fc0	-0.011123598
40	0xbea91d20	-0.33030033
41	0x3e1fda2e	0.15610573
42	0x3e9be8a1	0.3045092
43	0xbeb40dab	-0.35166678
44	0xbdf24ebe	-0.11831425
45	0x3e507c4e	0.20359918
46	0x3e5090aa	0.20367685
47	0x3d7ceb10	0.06174761
48	0xbe45c719	-0.19314231
49	0xbea00cc6	-0.31259745
50	0xbdf3105c	-0.11868355
51	0xbe75e9f2	-0.24015024
52	0xbe9a9542	-0.30192
53	0x3d2334b8	0.0398452
54	0x3e855331	0.26040033
55	0x3e57275e	0.21011111
56	0xbc641600	-0.013921261
57	0xbd9d5014	-0.07681289
58	0xbe9cb125	-0.306039
59	0xbeb42f8c	-0.35192525
60	0x3cec2c60	0.028829753
61	0xbe97e9d8	-0.29670596
62	0x3b2f3300	0.002673328
63	0x3e91dbdf	0.2848806
64	0xbdf2effc	-0.1186218
65	0x3e856263	0.26051626
66	0x3e8b5ec5	0.2722074
67	0xbe915b03	-0.2838975
68	0x3d0d18e0	0.03444755
69	0xbc419f00	-0.011817694
70	0xbe7e5d6b	-0.24840324
71	0xbe1db7bb	-0.15402119
72	0xbe951f9b	-0.29125676
73	0xbeac0b9f	-0.33602616
74	0x3eb3d651	0.35124448
75	0xbdcf6ce0	-0.10128188
76	0x3d1d7a28	0.038446575
77	0x3e01050c	0.12599581
78	0xbe94cc9e	-0.2906236
79	0xbe78c3b2	-0.24293402
80	0x3e965727	0.29363367
81	0xbc0d8fe0	-0.0086402595
82	0xbe5a81d3	-0.21338587
83	0x3dd4ac30	0.10384405
84	0x3e8b2d31	0.27182916
85	0x3e9768bd	0.29572096
86	0xbe2c4440	-0.1682291
87	0x3e35744e	0.17720148
88	0x3e807189	0.2508662
89	0xbddbff98	-0.1074211
90	0xbd41f0a8	-0.04734865
91	0x3e188ef2	0.1489828
92	0xbdad19d4	-0.08452192
93	0x3dabe940	0.08394098
94	0xbe73dc9a	-0.23814622
95	0x3e4228e2	0.18960908
96	0xbeb38f71	-0.35070375
97	0x3e67e1ea	0.22644773
98	0xbd97b718	-0.07407969
99	0x3ce065e0	0.027392328
100	0xbe77a2f4	-0.24183255
101	0x3e837deb	0.25682005
102	0xbe12d010	-0.14337182
103	0xbe4c9d08	-0.19981778
104	0xbe7b4e8d	-0.24541683
105	0xbc41be60	-0.011825174
106	0x3e8b96f1	0.27263597
107	0x3dca1d20	0.098688364
108	0x3e42aad6	0.19010481
109	0x3e5f92ee	0.21833393
110	0xbe36e094	-0.17859107
111	0xbe76fac8	-0.24119103
112	0xbe39e150	-0.18152356
113	0x3de3de80	0.11126423
114	0xbe9e0d19	-0.30869368
115	0x3e11b77c	0.1423015
116	0xbe9a6a2f	-0.30159137
117	0x3e0e9b0c	0.13926333
118	0xbe8312ec	-0.25600374
119	0x3eb426c9	0.3518584
120	0xbdcbcb6c	-0.09950909
121	0x3ea980ad	0.33105984
122	0xbd553b18	-0.05205831
123	0x3e4dce46	0.20098218
124	0xbea1c785	-0.31597534
125	0xbde78cde	-0.11306165
126	0x3e8807f3	0.26568565
127	0xbe966f1b	-0.29381642
128	0x3e96414d	0.29346696
129	0x3de3eaa0	0.111287355
130	0xbe88dd79	-0.2673147
131	0xbea80ddb	-0.3282307
132	0x3e2dfb56	0.16990408
133	0xbe9e1f68	-0.30883336
134	0x3e02bcd6	0.12767348
135	0xbe1d4925	-0.15359934
136	0x3ea580bb	0.32324776
137	0x3e2e7e3a	0.17040339
138	0x3dc10bc8	0.09426075
139	0xbe73d6b4	-0.23812371
140	0xbe4ce0c3	-0.20007615
141	0x3e8bceb3	0.27306136
142	0x3df8eae0	0.12154174
143	0xbe2b7e1e	-0.16747329
144	0x3e7950d2	0.24347237
145	0xbc96b170	-0.018395156
146	0xbddb4480	-0.10706425
147	0x3c8b5970	0.01701042
148	0xbd8d5610	-0.06901181
149	0x3d708ec8	0.058729917
150	0x3e4101fa	0.1884841
151	0xbeac2a74	-0.3362614
152	0x3e5b65e2	0.21425584
153	0x3e6b3f62	0.22973397
154	0xbe1dfc96	-0.15428385
155	0x3e10e9ec	0.14151734
156	0xbea1c590	-0.3159604
157	0x3e1c59fa	0.15268698
158	0x3daa28c4	0.08308557
159	0x3e979741	0.29607585
160	0x3e77507e	0.24151799
161	0xbd7aee18	-0.06126222
162	0xbe9100fd	-0.28321066
163	0x3decd1d4	0.11563459
164	0xbeaf304f	-0.34216544
165	0x3e207176	0.15668282
166	0x3e8e879d	0.2783784
167	0xbeadee8c	-0.3397106
168	0x3e6c3d4a	0.23070255
169	0x3e779ef2	0.24181727
170	0x3d3f42f0	0.046694696
171	0x3d0fdd28	0.03512302
172	0xbc66d7e0	-0.014089555
173	0x3c73d300	0.014881849
174	0xbe81eae6	-0.25374526
175	0xbe4cffe0	-0.20019484
176	0xbe82be3c	-0.25535762
177	0x3d0419c8	0.03225115
178	0xbe24710d	-0.1605875
179	0x3e8626cf	0.26201484
180	0x3e9f7079	0.31140497
181	0xbe81cc40	-0.25351143
182	0xbd944ae8	-0.0724085
183	0xbe6b4b22	-0.2297788
184	0x3e4b4606	0.1985093
185	0x3e95926d	0.29213277
186	0x3e61d122	0.22052434
187	0x3dd7f214	0.105442196
188	0x3daad1d4	0.08340803
189	0x3e27eae2	0.16398194
190	0xbb72de00	-0.0037058592
191	0x3e2b0ab6	0.16703305
192	0x3d87c1fc	0.066287965
193	0x3e9f593f	0.31122777
194	0xbdba2d3c	-0.09090659
195	0x3d9c3a28	0.0762828
196	0x3e2f513a	0.17120829
197	0xbe1cef44	-0.15325648
198	0xbeaf386f	-0.34222743
199	0x3e0c2368	0.13685381
200	0x3d7ae6f8	0.061255425
201	0xbd53b600	-0.05168724
202	0xbe01e749	-0.12685885
203	0x3e5674ae	0.20942947
204	0xbbb5ef40	-0.0055522025
205	0xbe4cfdf6	-0.20018753
206	0x3e3acd6a	0.18242422
207	0x3e9743a9	0.29543808
208	0x3e588dce	0.21147844
209	0x3e78aae6	0.24283943
210	0x3d8b6458	0.068062484
211	0xbeaf5983	-0.3424798
212	0xbdf84c54	-0.121239334
213	0xbd2831b8	-0.04106304
214	0x3e76d40a	0.24104324
215	0x3e818823	0.25299177
216	0xbdd0cc08	-0.10195166
217	0x3e851ae7	0.25997087
218	0xbe90702c	-0.2821058
219	0xbe8160d5	-0.2526919
220	0xbb8d2240	-0.0043070614
221	0xbe12a118	-0.14319265
222	0x3e139742	0.14413169
223	0x3eabdb07	0.33565542
224	0xbe26e56a	-0.16298452
225	0x3ea006bd	0.3125514
226	0x3b56eb80	0.0032794178
227	0x3e90edb1	0.28306344
228	0x3d16ec70	0.036846578
229	0x3e3ceba2	0.18449262
230	0xbea2497a	-0.31696683
231	0xbe344991	-0.17606188
232	0xbe2f3938	-0.17111671
233	0xbdd3996c	-0.10331997
234	0xbe1a1a8c	-0.1504919
235	0xbe24fa46	-0.16111097
236	0xbe5eddba	-0.2176427
237	0x3c2d8be0	0.010592431
238	0x3eaf8737	0.34282848
239	0xbcdd45e0	-0.027010858
240	0xbea7c78c	-0.3276943
241	0x3d87f77c	0.06639001
242	0xbe7c6eb6	-0.24651608
243	0xbe1d8792	-0.15383747
244	0x3e6ce3ae	0.23133728
245	0x3dd7e760	0.10542178
246	0xbdfdd4ae	-0.12394081
247	0x3e14110e	0.14459631
248	0x3e964177	0.2934682
249	0xbe8670ed	-0.2625803
250	0x3e7f9fb2	0.24963263
251	0x3e825aa5	0.2545978
252	0x3e71584a	0.23568836
253	0x3e0f987e	0.14023015
254	0x3e50b652	0.2038205
255	0xbe21f754	-0.15817004

CACNN.flow.0.conv.weight f4 [8, 8, 3, 3]
0	0x3cb9db53	0.02268759
1	0xbc87850d	-0.016542936
2	0x3d3bbe02	0.045835502
3	0x3d2b1a24	0.041772977
4	0x3e1af619	0.15132941
5	0xbd9a7c84	-0.07543281
6	0x3d35754d	0.04430132
7	0xbdafd66e	-0.08585821
8	0xbd8c3c4a	-0.06847437
9	0xbced3e89	-0.028960483
10	0x3ce8134d	0.028329516
11	0x3d70c90e	0.05878549
12	0x3cce16aa	0.025157291
13	0xbd13b5e5	-0.03606214
14	0x3d737976	0.059442006
15	0xbd1c6aa8	-0.038187653
16	0x3df0a839	0.11750836
17	0x3d1595aa	0.036519684
18	0x3d91b777	0.07115071
19	0x3c868d37	0.016424758
20	0x3bffc94e	0.00780598
21	0xbd40cbe7	-0.047069456
22	0xbb7b87b4	-0.0038380446
23	0x3dd57c59	0.10424108
24	0xbc633697	-0.013867996
25	0x3da951ae	0.08267532
26	0x3bc23379	0.005926546
27	0x3c82d628	0.015971258
28	0xbd38c44a	-0.04510907
29	0x3c4823aa	0.012215534
30	0x3d2dabb3	0.042400073
31	0x3d2e0d16	0.04249295
32	0x3df0968e	0.11747466
33	0x3cacbe1d	0.021086747
34	0xbd4bde8d	-0.049772788
35	0x3d23f998	0.040032953
36	0xbcac4ae6	-0.021031808
37	0x3c2c5889	0.010519155
38	0xbd20074e	-0.039069466
39	0x3dc67b77	0.09691518
40	0x39d61ce3	0.00040838783
41	0xbc6257f4	-0.013814915
42	0x3e095620	0.1341176
43	0xbd5ccc65	-0.053905863
44	0x3dafd3b7	0.08585303
45	0xbd1f096c	-0.038827345
46	0x3dd0aff6	0.10189812
47	0x3c07da36	0.008291772
48	0xbc19ed16	-0.009394905
49	0x3d8c85f4	0.06861487
50	0xbbf833c8	-0.007574532
51	0xb82726e8	-3.9852137e-05
52	0xbd5fd76d	-0.054648805
53	0x3db50ace	0.088399515
54	0x3d8e983d	0.06962631
55	0xbd3a24ea	-0.04544536
56	0x3cc41060	0.02393359
57	0xbd1f4db9	-0.03889248
58	0xbc4e4088	-0.012588628
59	0x3d7abd03	0.061215412
60	0x3d14e3ab	0.036349934
61	0xbd259d62	-0.040433295
62	0x3de8cc02	0.113670364
63	0xbd8bab7a	-0.06819816
64	0x3c5a8d7d	0.0133393975
65	0x3d1fc76c	0.039008543
66	0x3cc2c54c	0.02377572
67	0x3ca44da3	0.020056551
68	0x3dd6bcd4	0.10485235
69	0xbca19477	-0.019724114
70	0x3d9d1024	0.07669094
71	0xbd37cc83	-0.044872772
72	0xbd96b998	-0.07359618
73	0xbd5eb01c	-0.05436717
74	0xbd811cc8	-0.06304318
75	0x3d630799	0.055427168
76	0x3e097f5e	0.13427493
77	0xbd53674a	-0.051612176
78	0x3be2e45a	0.0069241943
79	0x3c7180a6	0.014740145
80	0xbda0c97f	-0.07850932
81	0xbd909397	-0.070594005
82	0xbdb658b9	-0.08903641
83	0xbd3e2ef3	-0.046431493
84	0xbe11afb9	-0.14227189
85	0x3d3284df	0.043583747
86	0xbe084762	-0.1330848
87	0x3d549749	0.05190209
88	0xbd3c23f3	-0.04593272
89	0xbcce0a46	-0.025151383
90	0xbd6ccba5	-0.057811398
91	0x3cc7b21c	0.024376921
92	0xbc34aae7	-0.011027074
93	0x3d922a9e	0.07137035
94	0xbc769da0	-0.015052229
95	0x3df20559	0.11817426
96	0x3d5cdc5f	0.0539211
97	0x3d8c0008	0.068359435
98	0x3d1090e8	0.035294443
99	0x3d7ab75e	0.06121003
100	0xbc90fd7b	-0.017698994
101	0xbbf6c47d	-0.0075307474
102	0x3b91e9e7	0.004452932
103	0x3ddc00e3	0.10742357
104	0x3ccf50db	0.02530711
105	0xbd41c390	-0.047305644
106	0x3c1af0a5	0.009456788
107	0x3dbd89e2	0.09254815
108	0xbc89b2b4	-0.016808845
109	0x3da85644	0.08219579
110	0x3c542872	0.012949096
111	0x3ce45fc0	0.027877688
112	0x3d34eba7	0.044170048
113	0xba95eec6	-0.0011438958
114	0x3d4f750e	0.05064874
115	0xbd61879f	-0.05506098
116	0x3da82891	0.082108624
117	0x3d43c458	0.04779467
118	0xbd00753f	-0.031361815
119	0x3d09a342	0.03360296
120	0x3d1fb0cf	0.038986977
121	0xbe1ca501	-0.15297319
122	0x3d8aff97	0.06787031
123	0xbd251d46	-0.04031112
124	0x3d930531	0.071787246
125	0x3ce7f6c6	0.028315913
126	0xbd09f27e	-0.033678524
127	0x3c803e4a	0.015654702
128	0x3d5265ea	0.051366724
129	0xbd811917	-0.06303614
130	0xbd70ede6	-0.058820628
131	0x3d5b8ddc	0.053602085
132	0x3d300666	0.042974852
133	0x3bea55aa	0.0071513252
134	0x3cadc35f	0.021211324
135	0x3d825e8d	0.063656904
136	0xbd891f81	-0.06695462
137	0x3ce053a1	0.027383627
138	0xbd9080df	-0.0705583
139	0xbddb2ca9	-0.107018776
140	0x3dc09e21	0.09405161
141	0x3d3f5b6b	0.046718042
142	0x3cb764a9	0.022386866
143	0x3d0c61f4	0.034273103
144	0x3d81efcb	0.06344565
145	0x3c9e5a62	0.019330207
146	0x3da576e7	0.080793194
147	0x3de227cb	0.11042746
148	0x3ab3d19a	0.0013719082
149	0x3c9d46e7	0.019198848
150	0xbd77c04b	-0.06048612
151	0x3d30643c	0.04306434
152	0x3d8b8f84	0.06814483
153	0x3dd80fcd	0.10549889
154	0xbce384f4	-0.027773358
155	0x3d83cb41	0.06435252
156	0xba14b967	-0.0005673379
157	0x3d646795	0.055762846
158	0x3d83ca34	0.064350516
159	0xbd90d101	-0.07071114
160	0x3d83509f	0.06411862
161	0x3d6ee6ed	0.058325697
162	0xbb822bc0	-0.0039725006
163	0xbd6dfd92	-0.05810315
164	0x3c25e93f	0.010126411
165	0xbdaef827	-0.08543425
166	0x3bf083c4	0.0073399264
167	0xbd96cf27	-0.0736373
168	0xbd5900e6	-0.052979372
169	0xbd7af1e7	-0.061265852
170	0xbdd7f07f	-0.10543918
171	0x3b771876	0.003770379
172	0x3beb6532	0.0071836943
173	0xbd319a06	-0.04335978
174	0xbd501e78	-0.050810307
175	0x3d4c3a7e	0.04986047
176	0x3d0c0da0	0.03419268
177	0x3db60f03	0.08889582
178	0xbc3d1bf7	-0.011542312
179	0x3d98ef31	0.07467497
180	0xbcd96295	-0.026536265
181	0x3d14192b	0.036156815
182	0x3de0c0ee	0.109742984
183	0xbd4c7759	-0.049918506
184	0x3d998342	0.074957386
185	0x3d082712	0.033240385
186	0xbc1351b5	-0.008991648
187	0xbb2ac104	-0.0026054988
188	0x3bfbe566	0.0076872585
189	0xba9980e0	-0.0011711381
190	0xbd53551b	-0.051594835
191	0x3d08e641	0.033422712
192	0xbcb01a81	-0.021497013
193	0xbce8d761	-0.028423013
194	0x3cd13caf	0.025541632
195	0x3d9ebfc9	0.07751424
196	0x3ca9e7cd	0.020740414
197	0x3d56e687	0.05246594
198	0x3da5561f	0.08073067
199	0xbd2d8562	-0.042363532
200	0x3c12e0da	0.008964742
201	0xbd4b3e64	-0.049620047
202	0xbd888fc0	-0.06668043
203	0x3c1fe0af	0.009758159
204	0x3def6e69	0.11690981
205	0xbc430870	-0.011903867
206	0x3d7089fc	0.058725342
207	0x3d803657	0.062603645
208	0xbdc11331	-0.094274886
209	0x3d10dc79	0.03536651
210	0xbd8e7d28	-0.069574654
211	0x3c676735	0.014123728
212	0xbd90ae7f	-0.070645325
213	0x3d86221e	0.06549476
214	0x3dadfc42	0.0849538
215	0x3d480434	0.048832133
216	0x3ce7a8fd	0.028278822
217	0x3d1b19b6	0.037866317
218	0x3ce28a02	0.027653698
219	0xbcecf9e6	-0.028927755
220	0xbd564dc5	-0.05232026
221	0xbd1ea303	-0.03872968
222	0x3d1aeeca	0.037825383
223	0x3c32da4f	0.010916307
224	0x3b2c6768	0.0026306752
225	0xbc84927b	-0.016183129
226	0xbd82d2ba	-0.06387849
227	0x3da4612b	0.08026346
228	0x3d2ec67a	0.04266975
229	0x3e0a5425	0.13508661
230	0x3da2e009	0.079528876
231	0xbc5f6c0e	-0.013636602
232	0xbd804d91	-0.062647946
233	0x3caafcd5	0.020872513
234	0xbd410009	-0.047119174
235	0x3d30ff8e	0.043212466
236	0x3d4ab6c2	0.049490698
237	0xbd074c05	-0.033031482
238	0x3d84111d	0.064485766
239	0x3ddecb91	0.10878671
240	0x3d34a5b6	0.044103347
241	0xbcf1dfd7	-0.02952568
242	0x39ceb2f6	0.00039424718
243	0xbd214246	-0.039369844
244	0x3d8efa0c	0.069812864
245	0xbdb75ef4	-0.08953658
246	0xbd8d581a	-0.0690157
247	0xbe17a3be	-0.14808556
248	0xbd0c0558	-0.034184784
249	0x3d9c588d	0.07634077
250	0xbcbfd36a	-0.02341624
251	0xbdce200e	-0.10064708
252	0xbc307c71	-0.010771857
253	0xbdadeef9	-0.08492846
254	0x3cb197f7	0.021678908
255	0xbd2833c6	-0.041065

CACNN.flow.1.weight f4 [64, 32, 1, 1]
0	0x3ccddffb	0.025131216
1	0xbde0da83	-0.10979178
2	0x3d520ee1	0.05128372
3	0x3e7b5188	0.2454282
4	0x3c5c4131	0.013443277
5	0xbd78076e	-0.06055396
6	0x3cb28c59	0.021795439
7	0xbcedddb8	-0.029036388
8	0xbd6fda9e	-0.0585581
9	0xbd4c767c	-0.049917683
10	0xbdf173e6	-0.11789684
11	0x3dec8c03	0.115501426
12	0xbd8dfae9	-0.06932623
13	0xbce39cb5	-0.027784685
14	0xbe0ba41d	-0.13636823
15	0xbdbfb418	-0.09360522
16	0xbd90aa89	-0.07063777
17	0x3df70982	0.1206236
18	0xbcc43bc1	-0.023954274
19	0x3c35ccec	0.01109622
20	0xbce2a160	-0.02766484
21	0x3c1f8805	0.009737019
22	0x3c73c9f2	0.0148796905
23	0x3d4f4dba	0.050611235
24	0xbe062133	-0.13098602
25	0xbc5f4792	-0.013627904
26	0xbe2c3388	-0.16816533
27	0x3d422f7f	0.047408577
28	0x3da8ccc0	0.08242178
29	0x3c751f1a	0.0149610285
30	0xbd88b8eb	-0.06675895
31	0xbe1035dd	-0.14083047
32	0x3e15d036	0.14630207
33	0xbe0a3ea0	-0.13500452
34	0x3be94ef0	0.007120006
35	0x3cd5a943	0.026081687
36	0xbd9e0a60	-0.077168226
37	0x3d0ea854	0.0348285
38	0x3cf504a0	0.029909432
39	0x3dce6ef9	0.1007976
40	0x3ab676c9	0.0013920899
41	0xbda2dc68	-0.079521954
42	0xbcd7e0bd	-0.02635228
43	0x3cbd7893	0.023128783
44	0xbc115266	-0.008869743
45	0x3da0635b	0.078314506
46	0xbd8f74fd	-0.070047356
47	0x3d313a3b	0.043268424
48	0xbd9e33ef	-0.07724749
49	0x3dacc0b6	0.08435194
50	0x3d6210bc	0.05519174
51	0xbd78b642	-0.06072069
52	0x3e0fafdf	0.14031933
53	0xbe0ef372	-0.13960055
54	0x3de3d940	0.111254215
55	0x3dfa09ed	0.122089244
56	0xbd8f4fa8	-0.06997615
57	0x3e32be5d	0.1745543
58	0x3c8a4cd6	0.016882341
59	0x3d9e734b	0.07736834
60	0x3db99ab3	0.0906271
61	0xbe25d1e5	-0.1619335
62	0x3d995635	0.07487146
63	0x3cc541d2	0.024079237
64	0xbbb3ab8b	-0.005483096
65	0xbdee975b	-0.116499625
66	0x3d75ce38	0.06001112
67	0x3e3e235d	0.18568178
68	0xbd0835dc	-0.03325449
69	0x3dbaa8ee	0.09114252
70	0xbdb6b474	-0.089211375
71	0xbe543fa3	-0.207274
72	0x3d352bb3	0.044231128
73	0x3e11ea99	0.14249648
74	0xbe84f65b	-0.25969204
75	0x3dd03983	0.101672195
76	0xbd89094e	-0.06691228
77	0x3e120ffd	0.14263912
78	0x3e431c65	0.190538
79	0xbc27c6cf	-0.010240271
80	0xbd876221	-0.066105135
81	0x3e4e77de	0.20162913
82	0xbbe251f5	-0.0069067427
83	0x3b3e9f1b	0.0029086533
84	0xbde9bb22	-0.11412646
85	0x3e545185	0.20734222
86	0xbe0d5a14	-0.13803893
87	0xbdf4b330	-0.1194824
88	0x3dbe6f65	0.092985906
89	0xbd910dfa	-0.07082744
90	0x3e288792	0.16457966
91	0x3d6764aa	0.056492485
92	0xbe85b7e6	-0.26116866
93	0x3e15ff10	0.1464808
94	0x3dcd2592	0.100169316
95	0xbe55b194	-0.20868522
96	0x3b9e16fb	0.004824517
97	0xbd98fa91	-0.07469667
98	0xbea37b7c	-0.3193015
99	0xbd49c9ce	-0.04926472
100	0xbdfcbbab	-0.12340482
101	0x3e10fa25	0.14157923
102	0xbcd85d82	-0.026411775
103	0x3dfb8792	0.12281717
104	0x3d741d3b	0.05959819
105	0x3a5b8876	0.0008374521
106	0x3e7c6e58	0.24651468
107	0xbdea00c3	-0.114259265
108	0xbcd3be34	-0.025847532
109	0xbcb06ccc	-0.021536253
110	0x3be986e6	0.007126677
111	0x3dbb2b44	0.09139112
112	0x3e4024cf	0.18764041
113	0xbe599c35	-0.21250995
114	0xbd85f1c6	-0.06540255
115	0xba65c767	-0.000876537
116	0xbd6acef4	-0.057326272
117	0xbe88a58b	-0.266888
118	0x3d822edc	0.06356594
119	0x3d1da994	0.0384918
120	0xb7b7e594	-2.1922206e-05
121	0x3e7c9f57	0.24670158
122	0x3df4297b	0.11921974
123	0xbd903633	-0.07041588
124	0xbe0ea702	-0.13930896
125	0x3e75727e	0.23969457
126	0x3df2423c	0.118290395
127	0xbd4ed749	-0.05049828
128	0xbe0c7af4	-0.13718778
129	0xbd1ca973	-0.038247537
130	0x3e180e7b	0.14849274
131	0x3dd36ab7	0.103230886
132	0x3c224fae	0.009906692
133	0xbd8d2410	-0.06891644
134	0xbe0f0300	-0.13965988
135	0xbe3f11f2	-0.1865919
136	0xbd1edabe	-0.038782828
137	0x3d84f5ad	0.064921714
138	0x3dde4168	0.10852319
139	0xbdac3852	-0.0840918
140	0x3cc8e809	0.024524705
141	0x3e32f386	0.1747571
142	0x3d576f11	0.052596156
143	0x3d96428a	0.0733691
144	0x3d86a247	0.06573921
145	0x3e03397d	0.12814899
146	0xbe27ff6b	-0.16406028
147	0x3d5fe569	0.054662142
148	0x3e2543f5	0.16139205
149	0x3e115b37	0.14194952
150	0x3da98d0e	0.08278857
151	0x3d65697b	0.056008797
152	0xbd09b943	-0.033623945
153	0x3e13cc89	0.14433493
154	0x3da5812c	0.08081278
155	0x3e36fe86	0.1787053
156	0xbdcb3763	-0.099226736
157	0x3e386786	0.18008241
158	0xbcd51697	-0.026011748
159	0x3e3d880a	0.18508926
160	0xbe45dd1f	-0.19322632
161	0xbe4f9455	-0.20271428
162	0xbe9b3945	-0.3031713
163	0x3e756b3e	0.23966691
164	0xbe329881	-0.17440988
165	0xbd74afbc	-0.059737906
166	0xbdceec6b	-0.10103687
167	0xbd785800	-0.0606308
168	0x3e048472	0.12941149
169	0xbd76bb4a	-0.060237207
170	0x3bf577de	0.007491096
171	0xbb81c839	-0.003960636
172	0x3d67cf27	0.05659404
173	0xbd7aec61	-0.061260585
174	0xbcdce5e1	-0.026965084
175	0x3d03e008	0.032196075
176	0xbe9e5fb1	-0.30932382
177	0x3e2afe39	0.16698541
178	0x3da06517	0.07831781
179	0x3db4df48	0.0883165
180	0x3e3b7f9a	0.18310395
181	0x3e7bb4ab	0.24580638
182	0xbe1f9cec	-0.15587205
183	0xbd58ef79	-0.052962754
184	0xbd220729	-0.03955761
185	0xbdf38b65	-0.11891822
186	0xbe4d5307	-0.20051204
187	0xbc43a160	-0.01194033
188	0xbd72ddb5	-0.059293468
189	0xbd5a7e1f	-0.053342935
190	0xbe038316	-0.12842974
191	0xbe0c52db	-0.13703482
192	0xbcd8d199	-0.026467131
193	0xbd98c0de	-0.074586615
194	0x3e9d5b56	0.30733746
195	0x3d18a987	0.03727105
196	0xbdfbf6c4	-0.12302926
197	0xbdbbc888	-0.09169108
198	0x3d0b13e9	0.033954535
199	0x3d9382d5	0.072026886
200	0x3e019007	0.12652598
201	0xbdcf430f	-0.10120212
202	0xbe9f9ba6	-0.31173438
203	0x3e40841a	0.18800393
204	0x3e01f5b8	0.1269139
205	0x3d827ccf	0.063714616
206	0x3dcbff88	0.09960848
207	0x3d97a210	0.07403958
208	0x3dd1a590	0.10236657
209	0xbdbf17f2	-0.09330739
210	0xbe23e4b5	-0.16005214
211	0xbdf11f0e	-0.11773501
212	0x3dc2db81	0.09514523
213	0x3e2e443a	0.17018214
214	0xbe296712	-0.16543224
215	0xbe59a8e0	-0.21255827
216	0x3e386973	0.18008976
217	0xbe59434f	-0.21217082
218	0xbdb1ebbd	-0.08687542
219	0x3c7f58c0	0.0155851245
220	0xbe642fe1	-0.2228389
221	0xbda1ab95	-0.07894055
222	0x3d28d689	0.04122022
223	0x3be52bff	0.00699377
224	0x3e2bfb24	0.16795021
225	0xbe118fff	-0.14215086
226	0xbe6aa962	-0.22916177
227	0x3c82e959	0.01598041
228	0xbc89a9d1	-0.016804608
229	0x3d80c742	0.062880054
230	0xbe3b236d	-0.18275233
231	0x3e0a4643	0.13503365
232	0x3ddcc959	0.107805915
233	0x3e1e47b2	0.15457037
234	0xbce2a4d2	-0.027666483
235	0x3d134586	0.035954975
236	0x3b15ffdd	0.0022888102
237	0x3e5ce7ca	0.21572796
238	0x3d02c4e9	0.03192607
239	0xbe1fb00e	-0.15594503
240	0x3e29c64a	0.16579548
241	0xbdfdf383	-0.12399962
242	0xbdf01ba4	-0.11724022
243	0x3d6be073	0.0575871
244	0xbe24461d	-0.16042371
245	0x3e07bee8	0.13256419
246	0xbd2d0f51	-0.042250935
247	0x3e06a64b	0.13149373
248	0x3c26c465	0.01017866
249	0xbd7ab0b9	-0.061203692
250	0x3de02788	0.1094504
251	0x3d8bd842	0.06828357
252	0x3bcc2cfe	0.0062309494
253	0x3e17a630	0.14809489
254	0x3dedbb38	0.11607975
255	0x3b876125	0.0041314536

CACNN.flow.3.weight f4 [32, 64, 1, 1]
0	0x3d91f62c	0.07127032
1	0x3e0149b4	0.12625772
2	0x3a9fc05e	0.0012188067
3	0x3d9f7c6d	0.07787404
4	0xbe25942d	-0.16169806
5	0x3e1566f4	0.14590055
6	0xbe13ed53	-0.14446001
7	0x3d6593c9	0.056049142
8	0x3d6e310f	0.058152255
9	0x3dbbf70a	0.09177978
10	0x3e1e2e80	0.15447426
11	0x3d952f69	0.072844334
12	0x3d8aa089	0.06768901
13	0xbdaa6790	-0.08320534
14	0xbe4337ae	-0.19064209
15	0x3ca9bd80	0.020720243
16	0x3dc788d4	0.09742895
17	0x3d824034	0.06359902
18	0xbda19c70	-0.07891166
19	0xbd02bd72	-0.03191895
20	0xbd812879	-0.06306548
21	0x3d486377	0.048922982
22	0xbdc10363	-0.09424474
23	0xbccc3ba3	-0.02493078
24	0x3d0570a7	0.032578137
25	0xbcdeccd9	-0.027197288
26	0xbc0cf533	-0.008603382
27	0xbe25dd56	-0.16197714
28	0xbb64eba6	-0.0034930496
29	0x3cedb247	0.029015673
30	0xbdccc85f	-0.09999155
31	0x3e1276ab	0.1430308
32	0x3dc38156	0.09546153
33	0xbe17d065	-0.1482559
34	0xbe11fd11	-0.14256693
35	0xbdce02e8	-0.10059148
36	0xbc1c5d46	-0.0095437225
37	0x3d8eaa1c	0.069660395
38	0x3ab725ac	0.0013973019
39	0x3b35b53d	0.0027726435
40	0x3d8b5298	0.06802863
41	0x3e343eb0	0.17602038
42	0x3d6cb80c	0.05779271
43	0x3e6259e8	0.22104609
44	0xbdf57073	-0.119843386
45	0x3c35a4b4	0.011086632
46	0xbc921a44	-0.01783479
47	0xbca77d40	-0.020445466
48	0x3bdad9df	0.0066788043
49	0x3c279930	0.010229394
50	0xbd828f1d	-0.06374953
51	0xbcb752e6	-0.022378396
52	0xbc79efb1	-0.015254901
53	0xbe1712f0	-0.14753318
54	0x3d76771d	0.06017219
55	0xbe0dafb3	-0.13836555
56	0xbd5949cc	-0.053048894
57	0xbd89c571	-0.06727112
58	0xbcf8ff85	-0.030395279
59	0xbd9604b3	-0.07325115
60	0x3da2b072	0.079438105
61	0xbdae0e7a	-0.08498855
62	0xbd1265b3	-0.03574152
63	0x3dff018a	0.124514654
64	0xbe1d1dd3	-0.15343408
65	0x3d78d530	0.060750186
66	0x3e5f68c2	0.21817306
67	0xbd3f3695	-0.046682913
68	0xbd812152	-0.063051835
69	0x3d2f21d4	0.04275687
70	0x3d925cf5	0.071466364
71	0x3c2a300c	0.010387432
72	0x3d6b5b72	0.057460256
73	0xbe03acfe	-0.1285896
74	0x3dd8094b	0.105486475
75	0x3cfcf7eb	0.030879935
76	0x3d798d53	0.060925793
77	0xbe0fbb0a	-0.14036193
78	0xbc78ec15	-0.015193005
79	0x3dd95d1d	0.10613463
80	0xbda221d6	-0.0791661
81	0xbdf79308	-0.12088591
82	0x3d2fa264	0.042879477
83	0xbe2703df	-0.1631007
84	0xbd887642	-0.06663181
85	0xbd6597ca	-0.05605296
86	0xbd82bbc9	-0.063834734
87	0x3bee9995	0.007281492
88	0x3dc142df	0.09436583
89	0x3c3a1b06	0.011358982
90	0xbc069224	-0.008213554
91	0x3cfe0623	0.031008786
92	0x3d39c160	0.045350432
93	0x3c411392	0.011784451
94	0x3d666d0a	0.05625633
95	0x3c71f752	0.014768438
96	0x3ded95a5	0.11600808
97	0x3df94685	0.12171654
98	0xbce51a62	-0.027966682
99	0x3cb6cbed	0.022314036
100	0xbda3667b	-0.07978531
101	0xbd56e243	-0.052461874
102	0x3c9c2889	0.019062297
103	0x3dda66a7	0.10664111
104	0x3db7e9a8	0.08980113
105	0xbd7f435f	-0.06232011
106	0x3b35e688	0.0027755816
107	0x3e54ee94	0.20794135
108	0x3de2f9c4	0.11082795
109	0xbc119458	-0.008885466
110	0xbd9975cf	-0.07493173
111	0xbdad664b	-0.084667765
112	0xbda48c0c	-0.08034524
113	0x3bbd6111	0.0057793935
114	0xbda49bce	-0.0803753
115	0xbd4bd9df	-0.049768325
116	0xbddb4e9d	-0.10708354
117	0xbe2658f6	-0.16244873
118	0x3d8f21f0	0.06988895
119	0x3e05773d	0.13033767
120	0xbcd7dff7	-0.026351912
121	0x3e38e7ed	0.18057223
122	0x3ab5b9ff	0.0013864635
123	0xbdbe07b5	-0.09278814
124	0x3d0162a1	0.0315882
125	0xbd62a964	-0.055337325
126	0xbda3d7d4	-0.0800015
127	0x3c9a87e5	0.018863628
128	0x3d1cdaaf	0.03829449
129	0x3d34fd08	0.044186622
130	0x3e1991d5	0.14997037
131	0xbcb4da62	-0.02207679
132	0xbd906d12	-0.070520535
133	0x3d54c551	0.051945988
134	0x3e63f571	0.22261597
135	0x3db48483	0.08814337
136	0xbda72c47	-0.08162742
137	0x3e0e0c52	0.13871887
138	0xbe270471	-0.16310288
139	0xbe8b1e45	-0.2717153
140	0xbd81de9d	-0.06341288
141	0x3d4c34dd	0.0498551
142	0xbd25eee2	-0.04051102
143	0xbe25e57b	-0.16200821
144	0x3b7f16a9	0.0038923419
145	0xbbe703d6	-0.007050018
146	0xbdeb7ed8	-0.11498803
147	0xbca56aa9	-0.020192461
148	0x3dc3b5b8	0.095561445
149	0x3ce4a561	0.02791089
150	0x3cca6820	0.024707854
151	0x3dc50aad	0.09621177
152	0xbc273fe3	-0.010208103
153	0x3bd69af6	0.0065492345
154	0x3daf6310	0.085638165
155	0xbc8605b2	-0.016360138
156	0x3d3c3dcd	0.045957375
157	0x3de4f089	0.11178691
158	0x3dbd3b58	0.092398345
159	0x3cdf8107	0.027283205
160	0xbd4b8a7e	-0.049692623
161	0x3ea9a91b	0.3313683
162	0xbbb97a64	-0.005660342
163	0xbd90041b	-0.07032033
164	0xbe29e159	-0.1658987
165	0x3eb295f3	0.34880027
166	0xbe12ffc4	-0.1435538
167	0xbe170e0e	-0.14751455
168	0x3e0c2576	0.13686165
169	0xba9e02da	-0.0012055293
170	0xbdbb4407	-0.091438346
171	0xbe035d8f	-0.12828659
172	0xbcbf2013	-0.023330724
173	0x3e084e14	0.13311034
174	0x3d3e5d12	0.046475478
175	0x3de03508	0.10947615
176	0xbe072a88	-0.13199818
177	0xbcdcd874	-0.026958682
178	0xbe2f5125	-0.17120798
179	0x3eb0b2e6	0.3451149
180	0xbcda7e0f	-0.026671438
181	0x3d5a244c	0.05325727
182	0x3dfa4eed	0.12222085
183	0xbdb0d482	-0.08634283
184	0xbdabeaa6	-0.08394365
185	0x3d8f1ecd	0.06988297
186	0xbd145401	-0.036212925
187	0xbc2bc5d5	-0.010484179
188	0x3e252819	0.16128577
189	0x3d049f44	0.03237845
190	0x3bda4cd7	0.006661992
191	0xbd992080	-0.07476902
192	0xbd9d4862	-0.076798216
193	0x3c622ff5	0.013805379
194	0x3de5ff13	0.11230292
195	0xbd15cf1b	-0.036574464
196	0x3d2eff1f	0.04272377
197	0x3e250802	0.16116336
198	0x3d77d8ba	0.06050942
199	0x3c9f7490	0.019464761
200	0xbbfa5cca	-0.007640456
201	0xbcfa1adb	-0.030530384
202	0x3b12fa45	0.0022427004
203	0xbbe4c567	-0.00698154
204	0x3bd1697f	0.00639075
205	0x3d84f4aa	0.064919785
206	0x3de1ade7	0.11019497
207	0xbe14e29f	-0.14539574
208	0x3da8d2b0	0.082433105
209	0x3dcadff2	0.099059954
210	0x3ba21edb	0.004947526
211	0xbddc51f1	-0.107578166
212	0x3c315978	0.010824554
213	0x3dd1c71c	0.10243055
214	0x3de42940	0.1114068
215	0x3dd46d4b	0.103724085
216	0x3ddca124	0.10772923
217	0x3ca69b4f	0.020337729
218	0x3dea32ea	0.11435492
219	0xbd62bfe0	-0.055358768
220	0xbcac6933	-0.021046257
221	0x3d97408c	0.07385358
222	0x3dcd987d	0.100388505
223	0xbd00674d	-0.031348515
224	0xbdaf8bab	-0.085715614
225	0x3d1f2920	0.03885758
226	0x3df69567	0.12040215
227	0x3d774bd5	0.060375053
228	0x3ddb6c1a	0.10713978
229	0xbde81e8d	-0.11333952
230	0x3df1b7a7	0.11802607
231	0xbdf3dead	-0.119077064
232	0xbc6bf3d7	-0.014401398
233	0x3dba417f	0.09094524
234	0xbd0530f6	-0.032517396
235	0x3dec42a2	0.11536147
236	0xbdb68202	-0.08911516
237	0x3b4944c3	0.0030711151
238	0x3c7a5fc5	0.015281622
239	0x3dbb0ee5	0.091337
240	0xbde1849c	-0.11011621
241	0x3dbc074d	0.0918108
242	0xbdc5c7be	-0.096572384
243	0x3cd3c835	0.025852302
244	0xbd5c0e53	-0.0537246
245	0xbd9ede4e	-0.07757245
246	0xbd90d488	-0.07071787
247	0x3d723a97	0.059137907
248	0x3ded4fc4	0.1158748
249	0xbe16ac56	-0.14714178
250	0xbdf9e723	-0.12202289
251	0xbdcb7dbe	-0.09936093
252	0xbc34eb36	-0.011042407
253	0x3d390c75	0.045177896
254	0xbe0fc11c	-0.14038509
255	0xbdae09aa	-0.08497937

merge.conv.weight f4 [32, 32, 3, 3]
0	0x3cf36971	0.029713364
1	0x3db9d100	0.09073067
2	0xbd2bda53	-0.041956257
3	0x3bf54a89	0.007485692
4	0xbd693165	-0.056931872
5	0xbb1490cd	-0.0022669316
6	0x3d494991	0.049142424
7	0xbd4a0e29	-0.04932991
8	0x3cc193ea	0.023630101
9	0xbbc18353	-0.0059055476
10	0x3c0aa039	0.008461052
11	0x3d0fa8fa	0.035073258
12	0xbd4e5a0c	-0.050378844
13	0xbcd10b85	-0.025518188
14	0x3cf18ef6	0.029487114
15	0x3d33f271	0.043932382
16	0x3e2f703a	0.17132655
17	0x3d676966	0.056497
18	0x3d282f62	0.041060813
19	0x3b569b51	0.0032746384
20	0x3cf16718	0.029468104
21	0xbc1cdd50	-0.009574249
22	0xbbe6beb5	-0.007041777
23	0xbbfc0eac	-0.0076921787
24	0x3cc1870f	0.023623971
25	0x3cc900b1	0.024536463
26	0x3c009e95	0.007850309
27	0x3d6dff86	0.058105014
28	0xbc150ac2	-0.009096803
29	0x3d144ef3	0.036208104
30	0x3bf8e16c	0.0075952318
31	0x3db13441	0.08652545
32	0x3b6c9846	0.0036101504
33	0x3d12f5fe	0.035879128
34	0x3d761791	0.06008107
35	0x3ccb8c4a	0.024847168
36	0xbd1d666a	-0.038427748
37	0xbd3b65de	-0.045751445
38	0x3d1580d0	0.0364998
39	0xbc858130	-0.016296953
40	0xbc784fee	-0.0151557755
41	0xbcd34256	-0.025788467
42	0x3d595263	0.053057086
43	0x3bc95896	0.0061445935
44	0xbaeb646c	-0.0017959005
45	0x3c8d81db	0.017273834
46	0x3d57983b	0.052635413
47	0x3d0eb794	0.034843042
48	0xbc735913	-0.01485278
49	0xbd42e5a9	-0.047582302
50	0xbc9c2924	-0.019062586
51	0x3d08cc9b	0.033398252
52	0xbd874d78	-0.06606573
53	0x3cfa5d1f	0.030561982
54	0xbc9fcd43	-0.019507056
55	0x3d53220e	0.05154615
56	0x3d2dfc15	0.042476732
57	0x3d816f4a	0.06320055
58	0xbd46f091	-0.048569266
59	0x3d7a4dc1	0.06110931
60	0xbd324e7b	-0.043531876
61	0x3c42f8d2	0.011900144
62	0xbcbe97da	-0.023265768
63	0x3d0d8b18	0.03455648
64	0x3ce3524b	0.027749201
65	0xbd01063a	-0.03150008
66	0x39994f79	0.00029241646
67	0x3db5b583	0.08872511
68	0xbcb28283	-0.021790748
69	0xbd6e64f9	-0.058201764
70	0x3ae1d457	0.001722942
71	0x3d80b25c	0.06284019
72	0xbc1ea7b2	-0.009683536
73	0xbd057a33	-0.03258724
74	0x3d16be53	0.0368026
75	0xbc94bd00	-0.018156528
76	0x3dbb5579	0.09147162
77	0x3c2550a3	0.010090026
78	0xbb0c580b	-0.0021414782
79	0x3d5c1cb4	0.05373831
80	0x3d3bf86b	0.045891207
81	0x3d6b9b5f	0.05752122
82	0x3d0ba82f	0.03409594
83	0xbcf20b85	-0.029546509
84	0xbd0dcdd2	-0.034620114
85	0xbd6d186a	-0.05788461
86	0x3b88a6bd	0.0041702674
87	0x3b76b8f9	0.0037646873
88	0x3bc67940	0.0060569346
89	0x3d2d0c40	0.04224801
90	0xbaa730aa	-0.0012755592
91	0x3d2d6d11	0.042340342
92	0xbd14a467	-0.0362896
93	0x3cf4cff1	0.02988431
94	0x3e33913b	0.1753587
95	0xbb8118f4	-0.003939742
96	0xbda41355	-0.080115
97	0x3a936bf8	0.0011247387
98	0xbda34444	-0.07972005
99	0x3d989a33	0.07451286
100	0xbd173404	-0.03691484
101	0xbd16db91	-0.03683049
102	0x3d239057	0.039932575
103	0x3c369dc7	0.0111460155
104	0xbbf45df5	-0.0074574896
105	0x3d728ed1	0.05921823
106	0x3d8bcd8c	0.06826314
107	0x3d2482c7	0.04016378
108	0x3c289cd9	0.010291302
109	0xbd493464	-0.04912223
110	0x3d83f73c	0.064436406
111	0x3d546d67	0.051862147
112	0x3d1d5789	0.03841356
113	0x3c776bdf	0.015101402
114	0x3cd8d361	0.02646798
115	0x3c1170d4	0.008876998
116	0x3d01b697	0.031668272
117	0x3d9d5882	0.07682897
118	0xbd840e59	-0.06448049
119	0xbd00bfcf	-0.031432923
120	0xbbdd8a69	-0.0067608845
121	0xbdccc7b8	-0.09999031
122	0xbd36af66	-0.044600867
123	0x3deb3561	0.114847906
124	0x3da27dd9	0.0793416
125	0xbd013714	-0.031546667
126	0x3cb8888f	0.022526054
127	0xbc2beca1	-0.010493428
128	0x3cdff9ed	0.027340854
129	0x3d86b4dc	0.06577465
130	0x3d322ea3	0.043501507
131	0x3c764668	0.015031435
132	0xbd46185a	-0.048363067
133	0x3d564050	0.052307427
134	0xbd31fcd8	-0.04345402
135	0x3ccf8c45	0.02533544
136	0xbe709761	-0.23495246
137	0x3c6483e3	0.01394746
138	0x3d8b6827	0.06806975
139	0xbbbc1ae5	-0.0057405108
140	0xbd9edd26	-0.077570245
141	0xbd5b57e0	-0.0535506
142	0xbe08aa77	-0.13346277
143	0x3d4d3e3a	0.050108172
144	0xbc7bdd87	-0.01537264
145	0x3ce107f8	0.02746962
146	0xbc13573a	-0.008992964
147	0x3cb4e08a	0.022079725
148	0xbd480255	-0.04883035
149	0x3d3ef86b	0.04662363
150	0xbc954f47	-0.018226279
151	0x3d2798d0	0.040917218
152	0xbd2bbaed	-0.041926313
153	0xb7f61ca2	-2.9338818e-05
154	0x3d954c77	0.07289975
155	0xbc7d4cc3	-0.015460196
156	0xbc9acfeb	-0.018897971
157	0x3e12f035	0.14349444
158	0xbe0eae09	-0.13933577
159	0xbd5de282	-0.054171093
160	0xbda9d069	-0.08291704
161	0xbd1395af	-0.03603142
162	0x3ca68254	0.020325817
163	0xbcc08922	-0.02350289
164	0xbbe02132	-0.0068398947
165	0x3c903252	0.01760212
166	0x3d7f09fc	0.06226538
167	0xbd210a17	-0.039316263
168	0x3cc6c7d2	0.024265204
169	0x3d972a71	0.07381142
170	0xbc9415a6	-0.018076729
171	0x3b953c57	0.004554312
172	0x3bae5325	0.00531997
173	0x3bc7cd28	0.0060974546
174	0x3d03f782	0.032218464
175	0x3deaaa38	0.11458248
176	0x3d29404b	0.04132108
177	0x3ccc5090	0.024940759
178	0xbbcdd50e	-0.0062815016
179	0xbc899442	-0.016794328
180	0x3cb9f747	0.022700919
181	0xbcea6bda	-0.02861588
182	0xbc318f33	-0.010837364
183	0x3ca9537d	0.020669693
184	0xbd875c1b	-0.066093646
185	0xbcba00c5	-0.022705445
186	0xbd319f9a	-0.0433651
187	0x3d2b5d2b	0.0418369
188	0xbd815963	-0.06315877
189	0xbce9daf1	-0.028546782
190	0x3d266031	0.04061908
191	0xbcae08a3	-0.021244353
192	0x3c27fb13	0.010252732
193	0x3e492fd2	0.19647148
194	0x3c910698	0.01770334
195	0xbcb988a1	-0.022648158
196	0xbd33cf2a	-0.04389874
197	0x3da91b8b	0.082572065
198	0xbce53087	-0.027977241
199	0xbd2f8b01	-0.042857174
200	0xbce256f0	-0.027629346
201	0x3d8abe00	0.06774521
202	0x3e04bd32	0.12962797
203	0xbd87aa1e	-0.06624244
204	0x3bc7da3a	0.0060990127
205	0xbd6fedf0	-0.058576524
206	0xbd6788b1	-0.056526843
207	0x3c829542	0.015940312
208	0x3cb6e14b	0.022324225
209	0xbdfb7794	-0.12278667
210	0x3d14f03d	0.03636192
211	0x3e065570	0.1311853
212	0x3cf14ef9	0.029456602
213	0x3d573dca	0.05254916
214	0xbc944472	-0.018099044
215	0xbd5320ec	-0.05154507
216	0xbc2f9b07	-0.010718114
217	0xbc24006b	-0.010009865
218	0xbb91f0c0	-0.0044537485
219	0x3b9abcf2	0.004722231
220	0xbde83dd7	-0.1133992
221	0xbc775ede	-0.015098302
222	0x3bfb9b19	0.007678401
223	0xbdce63a6	-0.100776
224	0x3d34f64e	0.044180207
225	0xbd8ccee9	-0.068754025
226	0x3ca653cc	0.02030363
227	0xbc0e833c	-0.008698281
228	0x3b9ea99a	0.0048419954
229	0x3e29911d	0.16559263
230	0x3daa7faf	0.08325135
231	0xbd39d7ea	-0.045371927
232	0xbdad69c2	-0.08467437
233	0x3ca4c23e	0.020112153
234	0xbd040ae9	-0.032236967
235	0x3caa20b2	0.020767543
236	0xbad25038	-0.0016045636
237	0xbb1b558a	-0.0023702108
238	0x3d61b0e6	0.055100344
239	0xbd5fe10a	-0.054657973
240	0x3d265646	0.04060962
241	0xbd454b1a	-0.048167326
242	0xbc58bf28	-0.013229169
243	0x3d811614	0.06303039
244	0x3c5f03c8	0.013611741
245	0xbd22cec2	-0.03974796
246	0x3cf80f41	0.030280711
247	0x3c23f535	0.010007192
248	0xbcb84f15	-0.022498647
249	0xbd00505c	-0.031326637
250	0x3c6fc823	0.014635119
251	0xbd457a56	-0.04821237
252	0xbdd3e1f3	-0.10345831
253	0xbba926f5	-0.0051621147
254	0xbdcaf6a6	-0.09910326
255	0xbd6ec47d	-0.058292855
